…
     "iopub.status.busy": "2022-02-09T16:24:34.124120Z",
     "iopub.status.idle": "2022-02-09T16:24:36.210218Z",
     "shell.execute_reply": "2022-02-09T16:24:36.146477Z",
     "shell.execute_reply.started": "2022-02-09T16:24:34.126345Z"
    }
   },
   "outputs": [
    {
     "name": "stdout",
     "output_type": "stream",
     "text": [
      "Model: \"sequential_1\"\n",
      "_________________________________________________________________\n",
      "Layer (type)                 Output Shape              Param #   \n",
      "=================================================================\n",
      "conv1 (Conv2D)               (None, 32, 32, 32)        896       \n",
      "_________________________________________________________________\n",
      "batch_normalization_7 (Batch (None, 32, 32, 32)        128       \n",
      "_________________________________________________________________\n",
      "conv2 (Conv2D)               (None, 32, 32, 32)        9248      \n",
      "_________________________________________________________________\n",
      "batch_normalization_8 (Batch (None, 32, 32, 32)        128       \n",
      "_________________________________________________________________\n",
      "dropout_5 (Dropout)          (None, 32, 32, 32)        0         \n",
      "_________________________________________________________________\n",
      "max_pooling2d_4 (MaxPooling2 (None, 16, 16, 32)        0         \n",
      "_________________________________________________________________\n",
      "conv3 (Conv2D)               (None, 16, 16, 64)        18496     \n",
      "_________________________________________________________________\n",
      "batch_normalization_9 (Batch (None, 16, 16, 64)        256       \n",
      "_________________________________________________________________\n",
      "max_pooling2d_5 (MaxPooling2 (None, 8, 8, 64)          0         \n",
      "_________________________________________________________________\n",
      "conv4 (Conv2D)               (None, 8, 8, 64)          36928     \n",
      "_________________________________________________________________\n",
      "batch_normalization_10 (Batc (None, 8, 8, 64)          256       \n",
      "_________________________________________________________________\n",
      "dropout_6 (Dropout)          (None, 8, 8, 64)          0         \n",
      "_________________________________________________________________\n",
      "max_pooling2d_6 (MaxPooling2 (None, 4, 4, 64)          0         \n",
      "_________________________________________________________________\n",
      "conv5 (Conv2D)               (None, 4, 4, 64)          36928     \n",
      "_________________________________________________________________\n",
      "batch_normalization_11 (Batc (None, 4, 4, 64)          256       \n",
      "_________________________________________________________________\n",
      "conv6 (Conv2D)               (None, 4, 4, 64)          36928     \n",
      "_________________________________________________________________\n",
      "batch_normalization_12 (Batc (None, 4, 4, 64)          256       \n",
      "_________________________________________________________________\n",
      "conv7 (Conv2D)               (None, 4, 4, 64)          36928     \n",
      "_________________________________________________________________\n",
      "batch_normalization_13 (Batc (None, 4, 4, 64)          256       \n",
      "_________________________________________________________________\n",
      "dropout_7 (Dropout)          (None, 4, 4, 64)          0         \n",
      "_________________________________________________________________\n",
      "max_pooling2d_7 (MaxPooling2 (None, 2, 2, 64)          0         \n",
      "_________________________________________________________________\n",
      "flatten_1 (Flatten)          (None, 256)               0         \n",
      "_________________________________________________________________\n",
      "fc1 (Dense)                  (None, 128)               32896     \n",
      "_________________________________________________________________\n",
      "dropout_8 (Dropout)          (None, 128)               0         \n",
      "_________________________________________________________________\n",
      "fc2 (Dense)                  (None, 128)               16512     \n",
      "_________________________________________________________________\n",
      "dropout_9 (Dropout)          (None, 128)               0         \n",
      "_________________________________________________________________\n",
      "fc3 (Dense)                  (None, 2)                 258       \n",
      "=================================================================\n",
      "Total params: 227,554\n",
      "Trainable params: 226,786\n",
      "Non-trainable params: 768\n",
      "_________________________________________________________________\n"
     ]
    }
   ],
   "source": [
    "model= driver_drowsiness_detection_model(input_shape=(32, 32, 3))\n",
    "model.summary()"
…
